collaborative_filtering_model.pth (torch, 483538 bytes, 4 tensors)

user_embedding.weight f4 [1000, 64]
000000 0c 23 c8 bd 0b 56 d3 3d 33 cd 61 3e ff a7 f6 3d
       -0.0977231 0.10319146 0.22050934 0.120437615
000010 0a d3 80 be f6 61 70 be d7 51 4e 3e 6f 3f 9c be
       -0.2516101 -0.23474869 0.20148407 -0.30517146
000020 44 88 4b be fb 7e 07 3d 06 d1 ca 3d 85 cd cf be
       -0.198762 0.033080082 0.09903149 -0.40586486
000030 56 03 83 be 58 1e 35 be a8 36 a3 3e 11 1a cd 3d
       -0.25588483 -0.17687356 0.31877637 0.100147374
000040 d5 81 75 3e 02 63 48 3e 7e 5f e9 3e 34 52 82 be
       0.23975308 0.19569018 0.45580667 -0.2545334
000050 90 43 44 3e 15 54 f5 3d 38 e2 7a bc b4 32 18 3e
       0.19166398 0.11978928 -0.015312724 0.14863092
000060 6c 6b 25 be 69 7a 24 be 15 6b 96 be 07 13 aa ba
       -0.1615426 -0.16062321 -0.29378572 -0.0012975641
000070 d2 54 58 3e 5b f6 c8 be bc 03 39 bd 44 31 68 be
       0.21126106 -0.39250454 -0.045169577 -0.22675043
000080 e4 58 4b be 37 04 1b bd f6 90 41 3e 86 6d 35 bc
       -0.19858128 -0.037845816 0.18902954 -0.011073476
000090 37 66 91 3c e5 a4 06 3c 11 20 2a be 2a 80 6c 3e
       0.017748935 0.008218025 -0.16613795 0.23095766
0000a0 20 87 aa bd 09 75 84 3d bc d6 a6 bd bc 01 26 3e
       -0.08326554 0.06467635 -0.08146426 0.16211599
0000b0 47 e7 6a be 5e 40 57 3e 33 5d 92 bd 13 87 3e be
       -0.22939788 0.21020648 -0.071466826 -0.18606214
0000c0 42 8e 8a 3d 33 33 23 3c 16 86 a4 bd 27 87 af be
       0.06765415 0.009960937 -0.08033387 -0.342828
0000d0 7a d8 8b be 50 18 f0 3d 70 83 ac be 1c a5 0d be
       -0.27313596 0.11723387 -0.3369403 -0.13832515
0000e0 89 24 6c be 80 92 39 be a5 d3 9f be df 76 49 3e
       -0.23060812 -0.18122292 -0.3121616 0.19674252
0000f0 6e d1 05 3e d1 01 95 3e 91 6d 9c 3e af 32 25 3d
       0.13068172 0.29102948 0.30552343 0.04033154
000100 b2 96 8f 3c c9 7b b6 be 0b e5 f6 3e 78 a0 0d be
       0.017527912 -0.35641316 0.4822162 -0.13830745
000110 df 66 85 be cd 36 2c bd 50 0b cb be fb f1 df 3e
       -0.26055047 -0.04204445 -0.39657068 0.43739304
000120 60 32 bb bd dd 5e 87 3e ff a0 4a 3c f6 c2 87 bd
       -0.09140468 0.26439562 0.012367486 -0.06628983
000130 3e 8d d3 be 45 8b 90 be 70 fd 5d be 6a f4 3a be
       -0.41318697 -0.28231254 -0.2167871 -0.18257299
000140 13 af 1f be b0 2b b4 3e 4a e5 68 bc 5a d6 a5 be
       -0.1559413 0.3518958 -0.014214823 -0.323901
000150 26 17 65 3e a5 11 91 be fc 1e 77 3e ff 91 a6 3d
       0.22372112 -0.28333774 0.24132913 0.08133315
000160 5d 09 82 be e8 19 39 be b5 f7 cc 3d b7 b1 82 be
       -0.2539777 -0.18076289 0.10008184 -0.2552621
000170 b7 52 fe 3d 77 b3 72 be 92 8e cc be 9e f5 99 bc
       0.1241812 -0.23701273 -0.39952523 -0.018793877
000180 51 eb 1f 3e cd ee ce 3d c7 55 97 be f1 3d e3 3e
       0.1561711 0.101041414 -0.2955763 0.44383195
000190 a5 c0 ad 3e 79 cd 2b be b6 86 f2 bd 70 f8 7b 3e
       0.3393604 -0.167776 -0.118421 0.2460649
0001a0 d3 dd c1 bb 9e 9e 3a be 2d 3b 79 3e 69 11 83 3e
       -0.005916336 -0.1822457 0.2433898 0.2559922
0001b0 28 2c 82 3e 25 c0 8d bd 60 b5 d1 3e 3d e3 14 3e
       0.25424314 -0.06921414 0.4095869 0.1453981
0001c0 ac 57 33 3e fd 25 ad 3e e9 86 c7 bd 0f 3e 01 be
       0.17513913 0.33818045 -0.09742529 -0.1262133
0001d0 3e db 65 bd 8e 2f 32 3e 75 87 b4 3e 4d 04 04 3d
       -0.05611729 0.17400953 0.35259596 0.032230664
0001e0 58 1f da be 20 b1 59 be 58 30 0d bd a0 c2 59 3e
       -0.42602038 -0.21258974 -0.034469932 0.2126565
0001f0 9d 81 4c be e5 42 98 3e 64 65 e1 3d 93 36 74 3e
       -0.19971319 0.29738536 0.11005667 0.23848943
000200 64 13 19 3e 46 ac 96 3e ea ad bc be f3 dd 9f be
       0.14948803 0.2942831 -0.36851436 -0.3122402
000210 ae 02 2c 3d ce 83 91 bc d2 4a a5 be d8 a8 40 3e
       0.041994743 -0.017763045 -0.32283646 0.18814409
000220 2c d4 9f be c4 52 6d bd 25 7d 85 3e 3e b8 f8 be
       -0.31216562 -0.05794026 0.2607204 -0.48578066
000230 5c b8 31 3e e6 58 82 be 99 4a 18 3d 31 52 c9 bd
       0.17355484 -0.2545845 0.037180517 -0.0983013
000240 e0 86 88 3e 1d 07 f7 be 59 cd af 3e c3 86 65 be
       0.266654 -0.48247615 0.34336355 -0.22414689
000250 7a 00 cb 3e 3f a8 73 3e b6 b2 91 3e 7c 21 fb 3d
       0.396488 0.2379465 0.28456658 0.12262246
000260 5a 64 fa bc 8f c8 17 be 2e e8 ac be e9 0d eb 3d
       -0.03056543 -0.14822601 -0.3377089 0.114772625
000270 82 88 af 3e 55 6a a3 be 95 28 02 bf de 12 e4 be
       0.34283835 -0.31917062 -0.50843173 -0.44545645
000280 89 b1 5e be 01 cf 6b 3e ba 54 0b be 20 5d aa 3e
       -0.21747412 0.23028184 -0.1360654 0.33274174
000290 fd 19 5e 3e a7 dc 9b bd c8 86 cf be fa 2f 79 bd
       0.21689601 -0.076104455 -0.40532517 -0.06083677
0002a0 92 c2 9c 3e 74 d3 9c 3d 26 e9 b6 3d 53 23 9b 3e
       0.30617195 0.07657519 0.08931188 0.30300388
0002b0 b7 97 95 be 64 43 6d bc 94 10 35 3e a5 56 1b be
       -0.29217312 -0.014481399 0.17682105 -0.15169771
0002c0 41 03 1d 3c 43 93 c3 bd 4a ae d1 bc 1c 10 d9 bd
       0.009583295 -0.09549572 -0.025595803 -0.10598776
0002d0 74 d0 4f bd a5 a9 95 be 16 d8 b0 3e 64 02 03 3c
       -0.050735906 -0.2923099 0.3453986 0.007996175
0002e0 0b df d2 be 64 0d 0f 3e 24 87 1c be 2b bc 99 3d
       -0.41185793 0.13969952 -0.15285927 0.07506593
0002f0 27 5b 90 be ee 95 9b 3d 39 ed 72 3e 62 56 93 bd
       -0.28194544 0.07596956 0.23723306 -0.071942106
000300 31 62 0c 3e 80 e6 0c be fc 3d 33 3e 47 e3 15 bd
       0.13709332 -0.13759804 0.17504114 -0.0365937
000310 b3 0d 01 be cd 5e a3 be 84 8b a6 bc 42 f2 da 3e
       -0.12602882 -0.31908265 -0.020330198 0.42762953
000320 28 df fe bc 77 15 ce bc 31 a3 79 3e d1 74 5e be
       -0.031112269 -0.02515672 0.24378659 -0.2172425
000330 6c 8a ee bc 16 d9 2f be 01 2b db 3e 1e 18 a6 be
       -0.029118739 -0.17172655 0.42806247 -0.32440275
000340 f6 7b af 3d 0d c2 f1 bd 0d d9 e8 3b fd 6c 86 be
       0.085685655 -0.118045904 0.0071059526 -0.26255026
000350 d0 13 00 3c 9e 2f 8f be 3b c6 1b 3e 51 9c 6a 3d
       0.007817224 -0.27966017 0.15212338 0.05727798
000360 b8 83 90 bd a5 05 b1 be 30 40 8e be 56 c2 ad bd
       -0.07056373 -0.3457462 -0.27783346 -0.08484332
000370 83 a8 37 3e e7 7e a2 be 0b 57 f1 bd 46 94 60 3d
       0.17935376 -0.31737444 -0.1178418 0.054828905
000380 a6 cf 13 3e a6 7a d1 3d 8f 57 81 3c 9d 7e cf 3d
       0.1443468 0.102284715 0.015788822 0.101315714
000390 5d 4b ae 3e 0a 26 0c be 3d 92 46 be 87 e6 b2 3d
       0.34041873 -0.13686386 -0.19391723 0.08735376
0003a0 44 cc 5a 3e d4 1b d9 3e 56 e0 b5 3d 00 92 7c be
       0.21366984 0.42404044 0.08880679 -0.2466507
0003b0 e6 05 11 3e 4d b5 84 3e e4 e6 0a 3f b2 86 68 3e
       0.14162406 0.25919572 0.5425856 0.22707632
0003c0 e6 48 3d bd dc b2 16 3e b8 34 24 3e 57 b0 1d be
       -0.0462121 0.14716667 0.16035736 -0.153993
0003d0 1a 75 fa bd 03 6e 49 3e 36 58 19 3e 46 92 33 be
       -0.122293666 0.19670872 0.14975056 -0.17536268
0003e0 68 c7 cd bd fd 90 80 be da e1 c7 bd 72 d6 e1 3d
       -0.10047799 -0.25110617 -0.09759875 0.1102723
0003f0 1a 5e 26 bd 32 ff 5a 3e f4 64 c8 bd 18 f7 72 3e
       -0.040617086 0.21386412 -0.0978488 0.23727071

item_embedding.weight f4 [500, 64]
000000 e4 b5 53 3e f6 29 b3 be 13 50 a4 be 0f 89 d2 be
       0.20674855 -0.3499295 -0.32092342 -0.41120192
000010 b7 0c 35 be 20 b3 40 3e 81 31 5e 3d 81 c0 c8 3e
       -0.17680632 0.18818331 0.05424643 0.3920937
000020 a1 51 f7 be f5 6f 04 3f 04 3a 27 3e ca dd a1 3e
       -0.48304465 0.5173333 0.16330725 0.31614524
000030 a9 33 6a be b6 18 02 bf f6 22 ca be 5e 6f 51 be
       -0.2287127 -0.50818956 -0.39479798 -0.2045264
000040 dd f2 db 3d 70 fe 4e be 7d 88 5a be 8b 3a 82 be
       0.10739682 -0.20214248 -0.21341129 -0.2543529
000050 e3 da d5 3e 08 a9 2b bf ce ca 0b 3f e5 3b bd 3e
       0.4176856 -0.67054796 0.5460633 0.36959758
000060 4e d2 9d be b3 4c c4 be 47 70 5b 3d 57 34 c9 be
       -0.30824512 -0.38339767 0.053573873 -0.39297745
000070 5f ac 22 3e 94 17 61 3e 10 31 fa bd 11 03 95 3d
       0.15886067 0.2198165 -0.12216389 0.072759755
000080 90 de 9a 3e 83 74 aa 3e 5f f3 07 bf 0f 06 b0 3e
       0.30247927 0.33292016 -0.5310573 0.34379622
000090 18 10 12 3f e6 c8 a4 3c 48 1d 8f be fc b1 da be
       0.5705581 0.020115327 -0.27952027 -0.42713916
0000a0 7f 8d fe be 67 70 bc 3e 7b 05 fd 3c e0 9e 30 bf
       -0.49717328 0.36804506 0.030886402 -0.68992424
0000b0 fe 1f 5b 3d 68 08 98 3e 86 68 81 3e 36 d0 d5 3e
       0.053497307 0.29693913 0.25275058 0.41760415
0000c0 66 4c fb be 84 72 b5 3d 48 9b be 3e c9 2c 6f be
       -0.49081725 0.08859733 0.37227845 -0.23356928
0000d0 c5 b6 a2 bd b5 e3 d8 3e 62 35 03 3e d3 f6 ff be
       -0.07945017 0.42361227 0.12813333 -0.49993
0000e0 92 99 dc be a5 21 04 be b6 77 b0 3e d9 ec d6 3e
       -0.43085915 -0.1290346 0.34466332 0.41977575
0000f0 d5 97 04 3e e0 a0 75 be 7e 9c 8d 3e 08 54 80 3e
       0.12948544 -0.2398715 0.27658457 0.2506411
000100 52 6c b1 3e 94 8a 58 be 48 7b 7b 3e 98 e5 98 3e
       0.34652954 -0.21146613 0.24558747 0.29862666
000110 07 83 c8 be 86 4e 8c 3d a7 ce a8 be 26 a8 8d 3d
       -0.39162466 0.06850915 -0.32970163 0.069168374
000120 8b f2 26 be 12 30 b8 3d 7c 16 29 3e 3d 2d 9e be
       -0.1630346 0.08993544 0.16512483 -0.3089389
000130 3a 96 12 bf 67 46 16 bf f4 d5 d5 bc 9e a0 13 bf
       -0.5726048 -0.58701175 -0.026102997 -0.5766696
000140 c3 2d b2 be d7 56 69 3e 78 74 bb 3e 01 3c 3e bd
       -0.34800538 0.22787033 0.36612296 -0.046443943
000150 32 33 02 3f 6a f2 b5 3e 6e 56 95 3e 24 28 d1 3e
       0.5085937 0.3553651 0.29167503 0.40850937
000160 92 9b e4 be b7 80 86 be 34 34 48 3e 9e 4d 0a bf
       -0.4464994 -0.26270077 0.19551164 -0.54024684
000170 33 fb 4a bd fb d7 87 be 8b 99 0e be f3 70 44 be
       -0.04955597 -0.26531968 -0.1392576 -0.19183712
000180 c5 c9 ce be 93 69 f5 3e 06 00 05 bf 41 b2 b6 3e
       -0.40388313 0.4793211 -0.5195316 0.35682872
000190 23 77 65 3e 1d 27 97 be 76 a0 f2 be 7d 6c f2 bc
       0.22408728 -0.2952203 -0.47388047 -0.029592747
0001a0 d5 d2 c7 3e 8e 00 5c be 5f 38 af be 6d 71 0f 3e
       0.3902804 -0.21484587 -0.34222695 0.14008112
0001b0 16 f8 d5 be 46 bc 4d be ce 07 63 3d 3a d1 ac 3e
       -0.41790837 -0.20091352 0.055427365 0.33753377
0001c0 9d e5 3e 3e 2f d4 de 3e 30 14 bc 3e b7 82 28 bf
       0.18642278 0.43521258 0.36734152 -0.65824455
0001d0 4c 4b 72 be d4 ff 5a 3e da e7 e1 bd 83 a8 b8 be
       -0.23661536 0.21386653 -0.1103055 -0.36066064
0001e0 bd 93 c8 be 6c 4e 54 be e8 97 b4 be ae 50 9d be
       -0.39175215 -0.2073304 -0.35272145 -0.30725616
0001f0 51 4e 0d 3e 06 b1 13 3e 90 31 61 3e 0f 53 45 3e
       0.13799407 0.14422998 0.21991563 0.19269966
000200 f4 95 d2 be 7b 6c 96 be f0 a5 52 bf 5b c8 3a be
       -0.4113003 -0.2937964 -0.8228445 -0.18240492
000210 61 7f 40 3e ed 09 9d bc 8e a8 b4 be fa 31 d5 bc
       0.18798591 -0.019169772 -0.35284847 -0.026024807
000220 29 03 51 be 4b cf b0 3e d1 10 f1 3e 56 af 07 3f
       -0.20411362 0.34533152 0.47083142 0.53001916
000230 b9 73 46 be 1e 48 23 bf 6c aa b2 3d 67 ba 4a be
       -0.19380082 -0.6378192 0.08723912 -0.1979767
000240 2f ac fd be f9 35 10 3e 94 61 1a 3e f1 3e 93 3d
       -0.49545428 0.14083089 0.15076286 0.071897395
000250 45 b7 80 3e 6d 2a ac be ae 80 d4 3e f6 b4 26 3d
       0.25139824 -0.33626118 0.41504425 0.04069992
000260 c5 f2 94 be 4e f7 65 be 67 fc cc be 00 7d 10 3e
       -0.29091468 -0.2245762 -0.40036318 0.14110184
000270 9d 27 04 3e ed e1 91 bd c8 6a 38 be 4a e0 ad be
       0.12905736 -0.0712317 -0.18009484 -0.3396018
000280 77 df 48 be 3f cf dd 3e 17 cb 45 3e 85 e1 8f 3e
       -0.19616495 0.4332218 0.19315754 0.28101745
000290 3d 56 b1 3d df e0 9f 3e 3e 81 bb bd b7 f2 2a be
       0.08659027 0.3122625 -0.0915551 -0.16694151
0002a0 c8 d6 81 be c0 81 e8 3e 07 dc ed 3d 86 6c 4f 3e
       -0.25359178 0.4541149 0.116142325 0.20256242
0002b0 6c 55 98 3d d5 93 cb be 55 66 03 3f 58 9b fd bd
       0.07438168 -0.39761224 0.5132802 -0.12383145
0002c0 b9 17 8e 3e df 2d a3 3e 01 07 56 bd c7 d6 93 be
       0.27752474 0.31870934 -0.052252773 -0.288748
0002d0 88 20 33 be 73 0b 99 be 83 52 cf be 0b 20 92 be
       -0.17492878 -0.29891548 -0.4049264 -0.28540072
0002e0 66 40 fb bd 41 5c 50 be 9f 4f 73 be f5 85 44 3e
       -0.122681424 -0.20347692 -0.23760842 0.19191726
0002f0 05 e3 3b bf ec e6 56 3d c8 fa 0e be c6 9e d5 bc
       -0.7339328 0.052466318 -0.13962853 -0.026076686
000300 53 e4 d5 3a 1c 11 9d 3d d8 03 ef be 3a 61 02 3f
       0.0016318656 0.07669279 -0.4668262 0.50929606
000310 5d 2b e0 bd 3d 77 b5 bc 0e b9 3d be c1 6c 08 3f
       -0.10945771 -0.022151584 -0.18527624 0.53290945
000320 61 22 7a be cc 32 ed 3e 5d 19 38 3e 81 7a b8 3d
       -0.24427177 0.46327817 0.17978425 0.09007741
000330 d2 81 a8 be 29 f0 36 be e7 9b cd 3e 90 7a 09 bf
       -0.32911545 -0.17865051 0.40158007 -0.5370264
000340 aa bf 17 3e 69 24 a8 3e 54 1a 0b 3d 4a 6d b5 be
       0.14819208 0.3284028 0.033960655 -0.35434943
000350 f7 ab 04 bb 56 75 57 be ca 4d 98 be f0 e5 be be
       -0.00202441 -0.21040854 -0.29746848 -0.37284803
000360 9d a9 0e bf 44 6e 75 3e df 9c e3 3d 56 4e dd be
       -0.5572756 0.23967844 0.11113905 -0.43223828
000370 67 1f a0 be c1 aa 57 3c c1 aa e9 bd bf 67 c5 be
       -0.31273958 0.0131632695 -0.11409522 -0.38555714
000380 dd 01 1f 3e d3 10 10 be cf f1 d1 be 12 f9 b0 3e
       0.15528055 -0.14068918 -0.41004798 0.34565026
000390 92 7c c2 3e e4 4d 16 3e a7 73 d0 3e 06 30 21 3f
       0.37985665 0.1467815 0.40713236 0.629639
0003a0 ca 30 b6 3e 24 f5 dd be cd 97 d5 3d 8f da c0 3e
       0.35584098 -0.4335109 0.10429344 0.37666747
0003b0 65 f1 7e 3e f0 01 a3 be 75 f7 c8 3d df fe 8b 3c
       0.24896772 -0.31837416 0.09812824 0.017089305
0003c0 6c c3 87 3e f9 4e a1 3e cd 9b 9e be bf b5 d9 bd
       0.26516283 0.31505564 -0.30978242 -0.106303684
0003d0 a8 46 b6 bd 6b 57 fe 3e 5c 90 e8 be ec 9f 40 3e
       -0.08900195 0.4967607 -0.45422637 0.18811005
0003e0 0f 4c 99 bb 98 ce 65 be 3b 6c 89 be a0 e0 05 3f
       -0.0046782563 -0.2244209 -0.26840386 0.52295876
0003f0 a7 a4 91 3e e6 b2 9f 3d f1 fa d9 bd 0c a1 a4 3e
       0.28445932 0.07797794 -0.106435664 0.3215412

user_bias.weight f4 [1000, 1]
000000 85 52 9a 3e da b2 94 3e a5 99 90 3e e6 9e 74 3e
       0.30141082 0.29042703 0.2824222 0.2388874
000010 cf 22 96 3e cb f3 c6 3e 0b d3 bc 3e 93 60 03 3f
       0.29323432 0.38857874 0.36879763 0.51319236
000020 ef fd cc 3e 5b 1d c9 3e a5 80 97 3e 98 a5 d6 3e
       0.40037486 0.3928021 0.29590335 0.41923213
000030 64 50 d5 3e b6 e9 ac 3e ec 94 d0 3e d5 32 ba 3e
       0.41662896 0.33772057 0.40738618 0.36366907
000040 a2 9a 02 3f b7 b3 b0 3e e6 42 a2 3e 26 ab bf 3e
       0.510172 0.34512112 0.31691664 0.37435263
000050 bd 83 c5 3e d0 80 bc 3e 4f c1 8b 3e 92 bd ee 3e
       0.3857707 0.36817026 0.2729592 0.46629006
000060 06 e0 88 3e e6 d1 62 3e 75 e6 a6 3e b7 d2 d9 3e
       0.26733416 0.22150382 0.325977 0.42543575
000070 cb 09 98 3e ee 77 c1 3e cc 95 a9 3e 36 d2 7b 3e
       0.2969497 0.37786812 0.33122098 0.24591908
000080 a0 a9 b6 3e 27 05 b4 3e 09 37 bf 3e 61 69 9b 3e
       0.3567629 0.3516018 0.37346676 0.30353835
000090 10 46 e7 3e 09 b2 08 3f dc 41 ae 3e f9 d9 bb 3e
       0.4517064 0.5339666 0.34034622 0.36689737
0000a0 df c6 c0 3e 6b c6 8e 3e 96 af e0 3e ce 71 b1 3e
       0.37651727 0.27885756 0.4388396 0.3465714
0000b0 b3 22 d6 3e 26 d3 d3 3e c1 6f d7 3e eb bd 9e 3e
       0.41823348 0.4137203 0.4207745 0.3100427
0000c0 f6 e1 ab 3e 02 cb 9c 3e 56 db ec 3d 41 f9 ce 3e
       0.33570832 0.30623633 0.115652725 0.4042454
0000d0 d2 7a d0 3e 22 80 df 3e 6e 7a ad 3e cb f1 9c 3e
       0.40718704 0.43652445 0.3388247 0.30653223
0000e0 fc 72 e0 3e f5 77 8e 3e 32 f8 9d 3e ee 0d 64 3e
       0.43837726 0.27825895 0.3085342 0.22270939
0000f0 a3 9a de 3e b8 90 3c 3e 6f 75 ba 3e 07 67 cc 3e
       0.43477353 0.18414581 0.3641772 0.39922354
000100 b3 2e 57 3e f6 b3 5e 3e 86 d1 db 3e 94 f2 f1 3e
       0.21013908 0.21748337 0.4293329 0.47255385
000110 ab 39 a0 3e 17 23 dd 3e eb bb 82 3e c0 4b 4a 3e
       0.31293997 0.43190834 0.25533995 0.19755459
000120 8f 67 af 3e 68 1f 86 3e 57 20 4d 3e 15 af e1 3e
       0.34258696 0.26195836 0.20031868 0.4407889
000130 bf 14 56 3e 93 25 d0 3e 27 58 85 3e 34 53 bf 3e
       0.20906352 0.40653667 0.26043817 0.37368166
000140 06 22 b8 3e 25 0f 5f 3e b1 fb d5 3e cb 57 ac 3e
       0.35963458 0.21783121 0.41793588 0.3366073
000150 f8 18 d9 3e c6 22 c8 3e 5d 55 bd 3e 6d e2 a0 3e
       0.42401862 0.3908903 0.3697919 0.3142275
000160 85 35 d8 3e b0 0d b9 3e 45 de 86 3e 91 4b 93 3e
       0.42228332 0.36143255 0.26341453 0.2876859
000170 10 47 ad 3e 0f 7f b9 3e 9e c3 18 3e f3 d3 6b 3e
       0.3384328 0.3622975 0.14918372 0.23030071
000180 7a cd e6 3e 0d 7a e3 3e a0 00 07 3f 21 22 9a 3e
       0.4507864 0.44429055 0.5273533 0.30104163
000190 b1 dc b0 3e 96 5f c4 3e 5c 6c bf 3e 32 66 ee 3e
       0.34543374 0.38354176 0.3738736 0.46562344
0001a0 20 fd 81 3e 5a 51 d9 3e 3f f8 8f 3e e1 cd 96 3e
       0.25388432 0.4244488 0.28119084 0.29453948
0001b0 20 4f 4a 3e e0 18 cd 3e ca 16 96 3e c7 a0 96 3e
       0.19756746 0.4005804 0.29314262 0.29419538
0001c0 99 98 b8 3e 63 b8 e1 3e c8 21 05 3f 4a 4b 9d 3e
       0.36053923 0.44085988 0.5200467 0.30721503
0001d0 aa eb ee 3e 72 a1 b8 3e 77 f3 c0 3e 24 a5 bb 3e
       0.46664172 0.36060673 0.3768575 0.3664943
0001e0 a2 9a a6 3e ae 1a bf 3e be f8 ce 3e 53 51 9c 3e
       0.3253985 0.37325042 0.4042415 0.30530795
0001f0 a5 c8 a9 3e 3e 98 b9 3e 57 08 87 3e 94 14 bc 3e
       0.33160892 0.36248964 0.2637355 0.3673445
000200 89 e5 77 3e 2c 35 d9 3e df 90 c2 3e a9 1e 45 3e
       0.24208654 0.4242338 0.38001153 0.19249977
000210 2c b6 85 3e 76 0c 89 3e d5 52 82 3e 21 29 a7 3e
       0.2611555 0.2676732 0.2545382 0.32648566
000220 56 23 a7 3e 32 38 a3 3e df 97 9a 3e be 6f af 3e
       0.32644147 0.3187881 0.30193993 0.3426494
000230 27 15 94 3e 61 22 b5 3e dc 9b db 3e fd 24 b8 3e
       0.28922388 0.35377792 0.4289235 0.3596572
000240 61 63 c8 3e 28 1a 03 3f 3e c6 b6 3e 5a 64 bb 3e
       0.3913832 0.51211786 0.35698122 0.366
000250 17 97 9d 3e ac 5e b2 3e 61 20 db 3e 34 46 a9 3e
       0.30779335 0.34837854 0.4279814 0.33061373
000260 f2 f5 ba 3e ba bd 7a 3e 9e a9 c4 3e 41 ce e2 3e
       0.36515766 0.24486437 0.38410658 0.44297984
000270 67 f3 b7 3e a9 d8 87 3e b0 89 97 3e f8 db bf 3e
       0.3592789 0.26532486 0.29597235 0.3747251
000280 e5 fb 8d 3e fd 9f 78 3e 44 0a b4 3e 99 38 ab 3e
       0.27731243 0.2427978 0.35164082 0.33441618
000290 2c 5e 9b 3e 2b 26 ac 3e d1 41 90 3e 23 eb 4a 3e
       0.30345285 0.3362287 0.28175214 0.1981626
0002a0 40 a2 7b 3e b2 83 5c 3e 22 09 94 3e b7 7f 88 3e
       0.24573612 0.21534613 0.28913218 0.2665994
0002b0 c5 d2 cc 3e c9 8d ed 3e 98 a4 7d 3e 74 a3 9c 3e
       0.40004554 0.46397236 0.24769819 0.30593455
0002c0 42 44 e3 3e 04 25 4e 3e 65 74 8a 3e 3f 31 c7 3e
       0.44388014 0.20131308 0.27041927 0.3890476
0002d0 ed 68 ab 3e d2 e8 a1 3e 9e 02 9b 3e c8 32 6d 3e
       0.3347849 0.3162294 0.30275434 0.23163903
0002e0 b1 22 b9 3e 2e c1 ea 3e 50 96 80 3e a4 1b d5 3e
       0.3615928 0.4585051 0.2511468 0.4162265
0002f0 59 58 a4 3e 9c 50 da 3e 17 85 1c 3e 0f ac fe 3e
       0.32098654 0.42639625 0.15285145 0.49740645
000300 d3 48 93 3e 2d 8b bf 3e 48 7b c1 3e c5 3c 02 3e
       0.28766498 0.3741087 0.3778937 0.12718494
000310 fd db d6 3e 2d 96 a8 3e 71 df d5 3e 5d f2 bc 3e
       0.41964713 0.32927075 0.41772035 0.36903659
000320 36 42 dd 3e 2c 93 d0 3e f5 c1 a4 3e 4b 10 9e 3e
       0.43214577 0.40737283 0.32179227 0.30871806
000330 4e 09 a4 3e c6 e7 ae 3e e2 75 f2 3e 24 d2 94 3e
       0.3203835 0.34161204 0.47355562 0.29066575
000340 e4 56 d8 3e 8f b0 c5 3e 08 7a a7 3e 86 98 d8 3e
       0.42253792 0.38611266 0.3271029 0.42303866
000350 b0 ba ab 3e 4f b9 30 3e ee bc a3 3e e6 ce de 3e
       0.3354087 0.1725819 0.3198008 0.43517226
000360 91 24 e5 3e 72 09 b5 3e 56 b2 bc 3e 4d 11 b9 3e
       0.4475446 0.3535877 0.3685481 0.36146012
000370 6b 8f eb 3e 2a aa 42 3e 6e 13 53 3e d2 6f b4 3e
       0.46007857 0.19010225 0.2061288 0.35241562
000380 2d 41 e5 3e a5 ac 85 3e 1c cc 9b 3e fb 4e e8 3e
       0.44776288 0.2610828 0.3042916 0.45372757
000390 1e 2e a5 3e 87 25 49 3e 15 1d 77 3e 57 0d a3 3e
       0.32261747 0.19643222 0.24132188 0.31846115
0003a0 97 57 3d 3e a1 5d e1 3e a4 a5 cd 3e 41 77 94 3e
       0.18490444 0.44016746 0.40165436 0.28997234
0003b0 d4 43 cd 3e f6 a5 0a 3f 64 fe 74 3e 37 04 b1 3e
       0.4009081 0.54159486 0.23925167 0.34573528
0003c0 7b 14 76 3e ce 52 9d 3e b1 d6 0c 3e 00 6d 91 3e
       0.2403125 0.30727237 0.13753773 0.28403473
0003d0 f7 7c d0 3e 51 76 dd 3e b8 8a c4 3e 18 bd 89 3e
       0.4072034 0.4325433 0.38387084 0.2690208
0003e0 47 e4 93 3e cd 89 c3 3e c8 b1 ca 3e 7d 0f 89 3e
       0.288851 0.3819107 0.3958876 0.2676963
0003f0 e6 c5 92 3e 94 7f b0 3e 37 d6 be 3e 73 90 dc 3e
       0.2866661 0.34472334 0.37272808 0.43078956

item_bias.weight f4 [500, 1]
000000 de a1 c0 3e 34 a7 17 3f f1 ba c3 3e c6 e0 c7 3e
       0.37623495 0.59239507 0.38228562 0.39038676
000010 ae 5f bd 3e 79 e6 00 3f a3 4d c3 3e 74 84 d0 3e
       0.3698706 0.50351673 0.3814517 0.40726054
000020 b6 c2 f9 3e 0e a6 ca 3e c0 a0 ae 3e 8a 26 b5 3e
       0.48781365 0.39579815 0.34107018 0.35380965
000030 96 06 fa 3e d3 b5 00 3f 35 88 06 3f 76 07 d3 3e
       0.4883315 0.5027744 0.52551585 0.4121663
000040 4b ee 03 3f 46 5f c3 3e 17 08 d1 3e a7 2b ba 3e
       0.5153548 0.38158625 0.40826485 0.3636143
000050 29 b9 03 3f c9 f5 0a 3f db b5 ca 3e 03 8e 0b 3f
       0.51454407 0.5428129 0.3959187 0.5451357
000060 55 02 01 3f d4 62 9c 3e d7 67 27 3f 8c 36 b9 3e
       0.50394183 0.3054415 0.6539282 0.36174428
000070 3e 0f d2 3e 91 1a 2c 3f d1 53 ff 3e 59 8f a6 3e
       0.41027254 0.6722804 0.49868634 0.3253124
000080 52 bf cf 3e 6b da dd 3e 2b b7 c4 3e f7 89 97 3e
       0.40575653 0.43330702 0.38420996 0.29597446
000090 05 37 da 3e 52 b8 b1 3e 93 67 ee 3e 4e cb 02 3f
       0.42620102 0.34710938 0.46563396 0.5109147
0000a0 f3 04 da 3e 07 c7 b8 3e 93 46 0e 3f 27 02 c5 3e
       0.425819 0.36089346 0.5557644 0.38478205
0000b0 d6 93 c3 3e e4 15 d0 3e f9 b0 c6 3e 2f b4 af 3e
       0.38198727 0.406417 0.38806894 0.34317157
0000c0 ad 50 8c 3e eb 5c c8 3e 93 03 ae 3e f5 38 c9 3e
       0.274053 0.3913339 0.33987102 0.39301267
0000d0 1b 82 c3 3e f4 df e0 3e d9 78 1b 3f c0 4d d4 3e
       0.381852 0.43920863 0.60731274 0.4146557
0000e0 f4 56 c9 3e 77 15 ce 3e 19 ec ff 3e 2a 1f fc 3e
       0.39324152 0.4025075 0.49984816 0.49242526
0000f0 b4 ea b3 3e 55 ae b7 3e 69 11 cd 3e a6 1d 24 3f
       0.35140002 0.35875192 0.40052345 0.6410774
000100 59 5a 02 3f b7 96 bb 3e 0b 40 ca 3e c9 ad fb 3e
       0.5091911 0.36638424 0.39501986 0.49156025
000110 6d ef 0c 3f b9 a9 a4 3e ac 50 d1 3e 54 e8 ba 3e
       0.55052835 0.32160738 0.4088186 0.36505377
000120 fc e0 dd 3e 95 e2 db 3e 03 64 9d 3e 2b 12 bc 3e
       0.43335712 0.42946306 0.30740365 0.3673261
000130 7e 8f 18 3f d6 09 9e 3e f0 63 c8 3e ae f5 c1 3e
       0.5959395 0.3086688 0.39138746 0.3788275
000140 e5 4f bc 3e 10 25 a2 3e cd 72 28 3f e5 aa 02 3f
       0.36779705 0.316689 0.6580017 0.51042014
000150 5c 70 00 3f 63 a0 b7 3e a1 c1 b1 3e 2c fc bb 3e
       0.50171447 0.35864553 0.3471804 0.3671583
000160 f1 43 0f 3f 5d a5 fe 3e 9d 08 b8 3e 5f 4d b8 3e
       0.55963045 0.49735537 0.3594407 0.3599653
000170 15 2b a6 3e 6e 04 05 3f 31 99 b0 3e 5a 5c 12 3f
       0.32454744 0.51959884 0.34491876 0.5717217
000180 4e 5d cd 3e fa 0c 21 3f 69 ed c2 3e af 6e d5 3e
       0.40110248 0.62910426 0.38071755 0.41686007
000190 7e 2c b8 3e f0 eb 08 3f b0 dc f8 3e fc b1 be 3e
       0.35971445 0.5348501 0.4860587 0.37245166
0001a0 49 ea bc 3e c3 8b d2 3e 57 dd c7 3e eb 28 06 3f
       0.36897495 0.41122255 0.39036056 0.52406186
0001b0 c4 71 14 3f e2 04 08 3f 09 c5 ba 3e dd 85 02 3f
       0.5798609 0.5313245 0.3647845 0.5098551
0001c0 00 f4 08 3f 51 48 be 3e 0d c8 c4 3e de 84 d1 3e
       0.53497314 0.37164548 0.38433877 0.40921682
0001d0 f4 31 c5 3e 59 0c 1a 3f 68 6d cd 3e 8b 9e aa 3e
       0.38514674 0.6017509 0.40122533 0.33324084
0001e0 f0 45 2d 3f 91 3c d7 3e 8a 29 96 3e 22 44 01 3f
       0.6768484 0.42038396 0.29328567 0.5049459
0001f0 cf 10 a2 3e 16 70 be 3e 15 58 c3 3e 23 b8 05 3f
       0.3165345 0.3719489 0.3815314 0.52234095
000200 77 5c a7 3e cb aa ba 3e 20 d9 bb 3e c4 56 b3 3e
       0.32687733 0.3645843 0.3668909 0.35027134
000210 9c da b3 3e 3b 0d 01 3f 17 93 aa 3e e7 36 b1 3e
       0.35127723 0.50410813 0.33315346 0.346122
000220 2a d6 bb 3e 70 d3 a2 3e 97 f6 19 3f b5 cc 10 3f
       0.36686832 0.3180194 0.6014189 0.5656236
000230 8d 1d 01 3f a9 ce c9 3e b3 55 e0 3e a0 7f 1a 3f
       0.50435716 0.39415482 0.43815383 0.6035099
000240 65 2f f6 3e 2b 86 b2 3e 88 3e fe 3e c2 d8 cf 3e
       0.48083034 0.34867987 0.49657083 0.4059506
000250 8b 1c dc 3e 0c 5c 2c 3f 90 61 fd 3e 8f 83 cd 3e
       0.42990527 0.6732795 0.49488497 0.40139434
000260 fa 1a da 3e 18 35 d0 3e 02 fb bd 3e 53 b9 bf 3e
       0.42598706 0.40665507 0.37105566 0.3744608
000270 85 d3 0a 3f 33 02 e4 3e d1 d6 c4 3e 98 7b 01 3f
       0.54229003 0.44532928 0.38445142 0.50579214
000280 37 b3 15 3f 21 9a d6 3e da 7e ee 3e d6 34 b7 3e
       0.58476585 0.41914466 0.46581155 0.35782498
000290 ac 9a b9 3e ae e2 eb 3e d5 8e 06 3f 35 59 fa 3e
       0.36250818 0.4607138 0.52561694 0.48896185
0002a0 a6 a5 04 3f 80 fb 02 3f 83 35 c0 3e a8 ca be 3e
       0.5181526 0.5116501 0.37540826 0.3726399
0002b0 7c 89 d9 3e 7d a2 fe 3e 61 fb a8 3e ab c9 19 3f
       0.42487705 0.49733344 0.33004287 0.60073346
0002c0 42 53 cf 3e 84 15 db 3e de 13 bf 3e 6d 61 2b 3f
       0.40493208 0.42789853 0.37319845 0.66945535
0002d0 63 0b ab 3e e1 bb c4 3e 11 15 03 3f 6c ed c6 3e
       0.33407125 0.3842459 0.5120402 0.38853014
0002e0 2a 76 31 3f 4d 82 28 3f 9e a4 cc 3e dc e7 09 3f
       0.6932093 0.65823823 0.39969343 0.53869414
0002f0 62 7a ff 3e 95 b7 ed 3e bc c4 0a 3f 1b 3f cf 3e
       0.49898058 0.46429124 0.5420644 0.40477833
000300 43 7c 1b 3f 47 4d cd 3e de 1f 29 3f e5 81 0b 3f
       0.60736483 0.4009802 0.6606425 0.5449508
000310 8f a8 17 3f f2 61 d2 3e 08 9b bf 3e d9 8b c7 3e
       0.59241575 0.4109035 0.37422967 0.38973883
000320 34 26 d5 3e 24 86 d0 3e 48 93 de 3e db 52 ca 3e
       0.4163071 0.4072734 0.43471742 0.3951634
000330 59 b9 fe 3e 60 7e b3 3e c6 42 e4 3e e6 f1 04 3f
       0.49750784 0.35057354 0.44582194 0.5193161
000340 06 40 c5 3e a3 89 d2 3e 09 3e 0c 3f 22 21 de 3e
       0.38525409 0.41120633 0.5478216 0.43384653
000350 4d a2 bc 3e c3 62 92 3e db 70 fa 3e d2 4e 1b 3f
       0.36842576 0.28590974 0.48914227 0.60667145
000360 74 32 ad 3e 85 9f c7 3e 17 bb ee 3e 9a 70 b6 3e
       0.33827555 0.3898889 0.46627113 0.35632783
000370 da ee b4 3e c0 36 fa 3e bb 9f b7 3e 54 b2 03 3f
       0.3533848 0.48869896 0.35864052 0.5144398
000380 ef 5a cf 3e 0d 06 b5 3e a6 2a f3 3e e1 ca d7 3e
       0.40499064 0.3535618 0.47493476 0.42146972
000390 c6 26 0d 3f 25 a7 c7 3e 31 77 0d 3f 9a 2b c2 3e
       0.5513729 0.3899471 0.55259997 0.3792389
0003a0 a2 41 c2 3e d2 4b 0a 3f d2 9f be 3e aa c9 a3 3e
       0.379407 0.5402194 0.37231308 0.31989795
0003b0 b5 a2 bc 3e a0 d4 aa 3e 95 56 25 3f 89 3e cb 3e
       0.36842886 0.33365345 0.6458524 0.39696148
0003c0 36 8a 1d 3f 0d 36 d4 3e 12 0b 01 3f cf 71 cc 3e
       0.6153902 0.41447487 0.50407517 0.3993058
0003d0 35 8f bf 3e e2 eb 2a 3f 13 0a c2 3e 9a 7c 84 3e
       0.37413946 0.6676618 0.3789831 0.25876313
0003e0 fb 6e d4 3e e5 77 d5 3e fd d9 24 3f 41 e8 b7 3e
       0.4149092 0.41693035 0.64395124 0.35919383
0003f0 76 d3 ea 3e f0 dd b6 3e 7b c1 d5 3e 53 11 f6 3e
       0.45864457 0.357162 0.41749176 0.48060092
