models/collaborative_filtering_model.pth (torch, 483538 bytes, 4 tensors)

user_embedding.weight f4 [1000, 64]
0	0xbe72e126	-0.237187
1	0xbe698cae	-0.22807571
2	0x3eb061d4	0.34449637
3	0xbed82280	-0.4221382
4	0xbf120257	-0.5703482
5	0x3d91be68	0.07116395
6	0xbe206c7e	-0.15666386
7	0x3e9fff25	0.31249347
8	0x3e1a4867	0.15066682
9	0xbe4fee7d	-0.2030582
10	0xbc55e902	-0.013056042
11	0x3db5c806	0.08876042
12	0xbe255dd2	-0.16149071
13	0x3e5adc9d	0.2137322
14	0x3e5f097d	0.21780963
15	0xbe5ab0df	-0.21356533
16	0xbe8e122d	-0.27748242
17	0x3dc54267	0.09631806
18	0xbd3cc483	-0.046085846
19	0x3e232a2f	0.1593406
20	0x3e3c7f44	0.18407923
21	0x3e8e8fe9	0.2784417
22	0xbe21d48b	-0.15803735
23	0xbe7b71ee	-0.2455518
24	0xbe35a6d6	-0.17739424
25	0xbd81e7c5	-0.06343035
26	0x3c5e1338	0.013554387
27	0xbe514d02	-0.20439532
28	0x3e725e1c	0.23668712
29	0x3d586856	0.052833878
30	0x3e9994a3	0.29996213
31	0xbe69c9d4	-0.22830898
32	0x3d8851c8	0.066562235
33	0x3db71057	0.089386635
34	0xbe9cfe7d	-0.3066291
35	0x3e22760d	0.15865345
36	0xbe4b1cd2	-0.19835213
37	0x3e95fecb	0.29295954
38	0xbded81e6	-0.11597042
39	0xbe74d99c	-0.23911136
40	0xbe28e8f8	-0.1649512
41	0xbd00d7a5	-0.031455655
42	0xbe1105b1	-0.14162327
43	0x3c128a94	0.008944172
44	0x3b5438c8	0.0032382477
45	0x3d10cea0	0.035353303
46	0x3dfca345	0.12335829
47	0x3d207ae1	0.039179686
48	0xbea4221b	-0.3205727
49	0x3e8412b5	0.25795522
50	0xbe7c79b7	-0.24655806
51	0x3e405424	0.18782097
52	0xbcb4fc16	-0.02209286
53	0xbe94fe34	-0.29100192
54	0xbd379762	-0.044822104
55	0xbd3dcc09	-0.04633716
56	0xbea5fc9a	-0.32419282
57	0x3ebcfc55	0.36911264
58	0x3de1fad5	0.110341705
59	0x3e5a3c09	0.21311964
60	0x3e1bbe23	0.1520925
61	0x3e3b8e7e	0.18316075
62	0xbd696d28	-0.056988865
63	0x3914286a	0.00014129435
64	0xbedc5f87	-0.43041632
65	0xbe8bef0b	-0.27330813
66	0x3e1abbfc	0.15110773
67	0xbdd9df31	-0.106382735
68	0xbdd84cb4	-0.10561505
69	0xbf0c25c2	-0.54745114
70	0x3d52ea96	0.05149325
71	0x3e22e640	0.15908146
72	0x3eece988	0.4627192
73	0x3e584938	0.2112168
74	0x3e5133f9	0.20429982
75	0x3db9b38e	0.090674505
76	0xbec028d8	-0.3753116
77	0xbe6fd3bc	-0.23420614
78	0x3dc6bf55	0.097044624
79	0x3d082817	0.033241358
80	0xbe776b55	-0.24162038
81	0xbe7dbfb4	-0.2478016
82	0xbea0de74	-0.31419718
83	0x3df35d21	0.11882997
84	0x3eb1a09e	0.34692854
85	0x3db1a20e	0.086734876
86	0xbee5ccaf	-0.44882724
87	0xbe61ed3d	-0.22063155
88	0x3d85e80a	0.065383986
89	0xbeb10288	-0.34572244
90	0xbe3e1830	-0.18563914
91	0xbe43aa60	-0.19107962
92	0xbe104e98	-0.14092481
93	0x3f07c21b	0.53030556
94	0x3eeb0fc2	0.4591046
95	0xbe081740	-0.13290119
96	0x3df7d3e5	0.121009625
97	0x3e66496f	0.2248895
98	0x3db9013a	0.09033437
99	0xbc5ae311	-0.013359801
100	0xbec0309c	-0.37537086
101	0x3d315431	0.04329318
102	0x3e281068	0.16412508
103	0xbe11ab89	-0.14225592
104	0x3eb28745	0.34868827
105	0xbdbad078	-0.091217935
106	0x3e342dcf	0.175956
107	0x3e314a6b	0.17313544
108	0x3d749bb2	0.059718795
109	0x3d1bad11	0.038006846
110	0xbd0a3b22	-0.0337478
111	0x3edee580	0.4353447
112	0xbce5814e	-0.028015759
113	0xbeb52a10	-0.35383654
114	0x3d8fdbf8	0.070243776
115	0x3e56f2dd	0.20991082
116	0xbe94b372	-0.29043156
117	0x3e817cfc	0.25290668
118	0x3dfef32f	0.12448727
119	0xbdc1f269	-0.09470064
120	0xbee0e78b	-0.43926653
121	0x3e1a6b02	0.15079883
122	0x3e69c171	0.22827698
123	0x3e7134de	0.23555323
124	0xbe87da25	-0.2653362
125	0xbe36bf94	-0.17846519
126	0xbe7682a1	-0.24073268
127	0xbd9199c1	-0.07109404
128	0xbe5dabf0	-0.2164762
129	0xbe87d807	-0.26532003
130	0x3cc94e80	0.024573565
131	0x3e4b9608	0.19881451
132	0x3d455d0d	0.048184443
133	0x3e942600	0.28935242
134	0xbeb80f8b	-0.35949358
135	0x3e97f6c0	0.29680443
136	0x3cda80e1	0.026672782
137	0x3d237e75	0.03991552
138	0x3d6450ee	0.055741243
139	0x3ee67e11	0.45018056
140	0x3e855ff2	0.26049763
141	0x3ef4c919	0.47809675
142	0x3e710f36	0.23540959
143	0x3e0aa3bc	0.13539022
144	0xbebe9dbd	-0.3722972
145	0x3cfdf7a0	0.031001866
146	0x3eb26e58	0.3484981
147	0x3e806f58	0.2508495
148	0x3e50ef8e	0.20403883
149	0x3ec07ded	0.37596074
150	0xbe8394e5	-0.25699535
151	0xbd4f932b	-0.05067746
152	0xbe7edfa6	-0.24890003
153	0xbe83bdef	-0.25730845
154	0xbe7f2b32	-0.24918821
155	0xbf06b46c	-0.5261905
156	0xbe15bc78	-0.14622676
157	0xbd03be93	-0.032164168
158	0xbdab1f14	-0.08355537
159	0x3e75a32d	0.23988028
160	0x3cf2e2e5	0.029649207
161	0xbecd55c2	-0.4010449
162	0xbdcebf44	-0.10095075
163	0x3e129b80	0.14317131
164	0x3d75e155	0.060029346
165	0xbd7884e8	-0.060673624
166	0x3e5f5c59	0.21812572
167	0xbe636576	-0.22206673
168	0xbbd522c2	-0.0065043876
169	0xbe00fa47	-0.12595473
170	0xbda09120	-0.078401804
171	0x3d8b9ab0	0.06816614
172	0x3f081de3	0.53170604
173	0x3d8812e2	0.066442266
174	0x3ec53859	0.38519552
175	0xbd84236a	-0.06452067
176	0xbe545559	-0.20735683
177	0x3eee8cd1	0.4659181
178	0xbea14140	-0.31495094
179	0x3e8663be	0.26247972
180	0xbedee6f1	-0.4353557
181	0xbe596e26	-0.21233425
182	0x3e1a9c1e	0.15098616
183	0xbebf48e0	-0.37360287
184	0xbbde0710	-0.0067757443
185	0x3e46130f	0.19343208
186	0x3e2fde68	0.17174685
187	0x3e307785	0.17233093
188	0x3a88e243	0.0010443408
189	0x3dd77278	0.1051988
190	0x3cad7eb3	0.021178579
191	0xbd832569	-0.0640362
192	0xbe4636cf	-0.19356845
193	0xbd471a0a	-0.048608817
194	0x3c066ca3	0.008204612
195	0xbe55b75e	-0.2087073
196	0xbe58ec46	-0.21183881
197	0x3e99a09d	0.3000535
198	0xbe747f20	-0.2387662
199	0x3e9f2abd	0.31087294
200	0xbd157f33	-0.03649826
201	0x3c340232	0.0109868515
202	0x3de29c27	0.1106494
203	0x3e7193f0	0.2359159
204	0xbe1ec937	-0.15506445
205	0xbec9b4d4	-0.39395773
206	0x3c50ddad	0.012748164
207	0xbc81709d	-0.015800769
208	0xbe9da8f1	-0.30792955
209	0x3efa287e	0.48859018
210	0x3e221a19	0.15830268
211	0x3e56192c	0.2090804
212	0x3e45c3df	0.19313
213	0xbdc14663	-0.09437253
214	0xbc03ee97	-0.00805249
215	0xbe15cd27	-0.1462904
216	0xbdb7c14c	-0.08972415
217	0xbe1aba4b	-0.15110128
218	0xbe7a666a	-0.2445313
219	0xbe9aafd3	-0.30212268
220	0x3e01c61a	0.12673226
221	0xbc251d79	-0.010077828
222	0x3eab0411	0.3340154
223	0xbe830865	-0.25592342
224	0x3eb9dbaa	0.36300403
225	0x3e137d1b	0.14403193
226	0x3d774fc2	0.060378797
227	0x3e86480c	0.26226842
228	0xbd593b3c	-0.053035006
229	0x3e51f636	0.20504078
230	0xbd88ebf0	-0.066856265
231	0xbdfc2f2c	-0.12313685
232	0xbdf8e1ee	-0.12152468
233	0xbe860529	-0.26175812
234	0xbc5f3946	-0.013624495
235	0xbe9486c3	-0.29009065
236	0x3e15f168	0.1464287
237	0x3e86b141	0.2630711
238	0xbdf1d5ca	-0.11808355
239	0x3eb8d398	0.36098933
240	0xbed228ef	-0.41046855
241	0x3e9d2b83	0.3069726
242	0xbe101beb	-0.1407315
243	0x3e0f3de4	0.13988453
244	0xbe92f9bc	-0.28706157
245	0x3e124776	0.14285073
246	0x3e45b780	0.19308281
247	0xbc8bc501	-0.017061712
248	0x3e85bd4e	0.2612099
249	0x3e0513c5	0.12995823
250	0x3ccae14e	0.024765637
251	0x3dbd8f28	0.092558205
252	0xbea13eb4	-0.3149315
253	0x3e3a8fcc	0.18218917
254	0xbea2def4	-0.31810725
255	0xbdab96dc	-0.083783835

item_embedding.weight f4 [500, 64]
0	0x3e44147b	0.19148438
1	0xbeb35e92	-0.3503309
2	0xbe695c62	-0.22789147
3	0xbdd3009d	-0.10302851
4	0x3e94d8b7	0.2907159
5	0x3db44b34	0.08803406
6	0xbf1608b6	-0.5860704
7	0x3ecebfbb	0.40380654
8	0x3ebcc289	0.3686717
9	0x3f3d0a5b	0.73843926
10	0x3ef62433	0.48074493
11	0x3ea6709e	0.32507795
12	0x3e7de4a5	0.24794252
13	0xbd8b0111	-0.06787313
14	0xbe5754af	-0.21028398
15	0x3e0a3b0e	0.1349909
16	0xbd204b1b	-0.039134126
17	0x3e8e453c	0.27787197
18	0x3f19b241	0.6003762
19	0x3f163e3d	0.5868872
20	0xbec0f0f6	-0.3768384
21	0xbe7e0398	-0.24806058
22	0xbedbce89	-0.4293101
23	0x3e916b20	0.28402042
24	0x3d01109d	0.031509984
25	0xbe248b51	-0.1606877
26	0xbe479158	-0.19489038
27	0xbda9f612	-0.08298887
28	0x3eb15b64	0.34640038
29	0xbede8a65	-0.43464962
30	0xbe57d1ca	-0.21076122
31	0x3e850013	0.2597662
32	0x3eb797df	0.35858056
33	0x3ea83fce	0.3286118
34	0xbd979624	-0.07401684
35	0x3e7bfc1e	0.24607894
36	0x3e37c280	0.1794529
37	0xbe38db3d	-0.18052383
38	0x3ec092bb	0.37611946
39	0x3e28ae0b	0.16472642
40	0x3f1dc47b	0.6162793
41	0x3ee0d87e	0.4391517
42	0x3cfc7dcf	0.030821709
43	0xbf211459	-0.62921673
44	0x3e053ec2	0.13012221
45	0xbe02ed6f	-0.12785886
46	0x3e9d52b5	0.30727163
47	0xbe6cd131	-0.23126675
48	0xbe915e7c	-0.28392398
49	0xbe653c2a	-0.22386232
50	0xbed3fcf3	-0.41403922
51	0x3f14b189	0.580834
52	0xbebae9fd	-0.36506644
53	0x3d41dede	0.047331683
54	0x3eb6cbc7	0.35702345
55	0xbf2292b0	-0.6350508
56	0x3f27864c	0.65439296
57	0x3e14f9fb	0.14548485
58	0xbeabed57	-0.33579513
59	0x3e3c336e	0.18378994
60	0xbf042a95	-0.51627475
61	0x3ea924be	0.33035845
62	0xbe894e89	-0.2681773
63	0xbe29a0d1	-0.16565253
64	0xbedde9d2	-0.43342453
65	0xbe5b361a	-0.21407357
66	0x3ea8809d	0.32910624
67	0xbdcd4461	-0.10022808
68	0xbe9dd94c	-0.30829847
69	0xbe91b8ee	-0.28461403
70	0xbe1f0c55	-0.15532048
71	0xbd51972f	-0.05116957
72	0x3e66a19f	0.22522591
73	0x3e6e2652	0.23256806
74	0x3f2e7e7c	0.6816175
75	0x3e8f23fe	0.27957147
76	0xbe90417a	-0.28174955
77	0xbeae60ce	-0.3405823
78	0x3eb34ae4	0.35018075
79	0xbc7df81b	-0.0155010475
80	0xbe46ab72	-0.19401339
81	0xbea2cb92	-0.31795937
82	0xbd56caf7	-0.052439656
83	0xbc6bdc15	-0.014395733
84	0x3f30a15b	0.6899621
85	0xbed55713	-0.41667995
86	0xbee4490e	-0.44586986
87	0xbef8fb2e	-0.48629135
88	0xbf0fb7a9	-0.5613962
89	0xbe75b90c	-0.23996371
90	0xbe3cc7d6	-0.18435606
91	0xbda69c1e	-0.08135246
92	0x3e07b259	0.13251628
93	0x3eea0e58	0.45714068
94	0x3f06e404	0.52691674
95	0xbe9e4b62	-0.30916888
96	0x3e84f081	0.2596474
97	0x3e98ea09	0.29866055
98	0x3ecaee06	0.39634722
99	0x3ea4f930	0.32221365
100	0xbe90b845	-0.28265586
101	0xbe10a39e	-0.14124915
102	0xbe2dd8da	-0.16977254
103	0xbeb4e20c	-0.3532871
104	0x3e2fe7b9	0.17178239
105	0xbe1e19a3	-0.15439467
106	0x3ea5a06b	0.32348952
107	0xbeafc7e3	-0.3433219
108	0x3c44da4b	0.012014936
109	0x3ba35dd6	0.0049855513
110	0x3f10a9ba	0.5650898
111	0x3d28872b	0.04114453
112	0x3dc8429e	0.09778331
113	0xbe8a6559	-0.27030447
114	0xbe59c65b	-0.21267073
115	0x3f23ef52	0.6403705
116	0xbe92aec2	-0.28648955
117	0x3dba7e4f	0.09106123
118	0x3eceed0b	0.40415224
119	0xbe8fb9ce	-0.28071445
120	0xbf01f337	-0.5076174
121	0x3d876e32	0.06612815
122	0x3ee8ea61	0.45491317
123	0x3eb70120	0.35743046
124	0x3efa8aa0	0.48933887
125	0x3e93785e	0.2880277
126	0xbe4b872c	-0.19875783
127	0xbdc7e97d	-0.09761331
128	0xbe2b935a	-0.16755429
129	0xbec26432	-0.37967068
130	0x3e3a61f0	0.18201423
131	0xbe919010	-0.28430223
132	0xbf10ee06	-0.56613195
133	0xbd8dc4f6	-0.06922333
134	0xbd76dca5	-0.060269017
135	0xbe5e914f	-0.21735118
136	0x3f34fc7b	0.70697755
137	0x3d9b03a0	0.07569051
138	0xbeb83966	-0.35981292
139	0x3c642455	0.013924678
140	0xbdff1116	-0.12454431
141	0x3e976f51	0.29577115
142	0x3ee072dd	0.43837634
143	0x3ef81c28	0.48458982
144	0xbd969c95	-0.073540844
145	0xbe4a16c6	-0.1973525
146	0x3e15689a	0.14590684
147	0xbe073a3e	-0.13205811
148	0xbdd30b97	-0.10304945
149	0xbee09e1c	-0.43870628
150	0x3e3f13b6	0.18659863
151	0xbe9832cb	-0.29726252
152	0xbed8fae5	-0.42378917
153	0xbe6407a5	-0.22268541
154	0xbee53f99	-0.44775084
155	0xbd51f520	-0.05125916
156	0xbd4aec2c	-0.049541637
157	0xbe819d97	-0.25315544
158	0x3d1c9ec3	0.038237344
159	0xbe178ad0	-0.14799047
160	0xbef3453f	-0.47513768
161	0x3dba7973	0.09105196
162	0xbf16baa7	-0.5887856
163	0x3ee42629	0.44560364
164	0xbe917b4a	-0.28414375
165	0x3d6b41dc	0.057435855
166	0x3e907824	0.2821666
167	0xbf0238b0	-0.5086775
168	0xbe8b9026	-0.27258414
169	0x3dfe6999	0.12422485
170	0x3dcc34b3	0.09970989
171	0xbe963808	-0.29339623
172	0xbdaa39f3	-0.08311834
173	0x3e1dbdc4	0.15404421
174	0x3e850f1d	0.25988093
175	0xbd364e39	-0.044508193
176	0xbe3c9bb1	-0.18418767
177	0x3ea3c235	0.31984106
178	0xbee46218	-0.4460609
179	0xbe9b6a36	-0.3035447
180	0xbe3deec6	-0.18548116
181	0xbeaf2631	-0.34208825
182	0xbef727a6	-0.48272437
183	0xbdf8e577	-0.12153142
184	0xbe893f85	-0.26806274
185	0x3e85b133	0.26111755
186	0xbee971aa	-0.4559453
187	0x3f09a2c0	0.5376396
188	0xbe8ea551	-0.278605
189	0x3d83ede8	0.064418614
190	0xbee3e214	-0.4450842
191	0xbdba69a5	-0.09102181
192	0x3cb69e7f	0.022292374
193	0xbe82ef56	-0.25573224
194	0x3e2bea87	0.16788684
195	0x3e7e4b29	0.24833359
196	0x3e93845a	0.28811914
197	0xbe29c6de	-0.16579768
198	0x3e6556c4	0.2239638
199	0x3e9e43ac	0.30911005
200	0xbe6b4fcb	-0.22979657
201	0xbe61ce80	-0.2205143
202	0xbefe4480	-0.49661636
203	0x3dfe151e	0.124063715
204	0xbe94c70e	-0.29058117
205	0xbed95854	-0.42450202
206	0x3eb91b5c	0.36153686
207	0xbe8d1ca8	-0.27560925
208	0xbef75342	-0.48305708
209	0xbdd21496	-0.10257833
210	0xbd4cada1	-0.049970273
211	0x3e8a45b6	0.2700631
212	0x3e926aab	0.28597006
213	0x3e4f75ee	0.2025983
214	0x3db2706b	0.08712848
215	0xbd5158b2	-0.051109977
216	0xbf10925d	-0.5647333
217	0xbe5bfd73	-0.21483402
218	0xbea3c2ed	-0.31984654
219	0x3e85403e	0.26025575
220	0xbec8f2b2	-0.39247662
221	0xbe7ffa00	-0.24997711
222	0xbef624c6	-0.4807493
223	0x3dec98f2	0.115526095
224	0x3e4a199e	0.19736335
225	0x3ef3c0c2	0.47608
226	0x3d3be88b	0.045876067
227	0x3e762c87	0.24040423
228	0x3ed98ab3	0.42488632
229	0xbe1fc734	-0.15603334
230	0x3e40b0de	0.1881747
231	0xbe38555b	-0.1800131
232	0xbf0b54aa	-0.5442606
233	0x3eb85fe3	0.36010656
234	0xbf0fea36	-0.5621675
235	0xbea23174	-0.31678355
236	0xbf48ec12	-0.78485215
237	0x3e5777d4	0.21041805
238	0xbe03ce80	-0.12871742
239	0x3eae8d67	0.34092256
240	0xbd93a37a	-0.07208915
241	0xbc903b07	-0.017606271
242	0x3d8a589f	0.067551844
243	0xbee457a7	-0.44598123
244	0xbec7c349	-0.39016178
245	0xbea0bc29	-0.31393555
246	0x3da7d2de	0.081945166
247	0xbe8b66ec	-0.2722696
248	0xbd40c93a	-0.047066905
249	0x3e8164b8	0.25272155
250	0xbe52dee5	-0.2059284
251	0xbe835f14	-0.25658476
252	0xbed81bca	-0.422087
253	0x3f0cf1b4	0.5505631
254	0xbe27e4d2	-0.16395882
255	0xbeb517bf	-0.3536968

user_bias.weight f4 [1000, 1]
0	0x3e86b8b2	0.26312786
1	0x3e76ba2d	0.24094458
2	0x3ea985ba	0.33109838
3	0x3e92fd2e	0.28708786
4	0x3e65a761	0.22427131
5	0x3ebde6d4	0.3709017
6	0x3ed3e64f	0.4138665
7	0x3f0e6147	0.55617183
8	0x3ed58df0	0.41709852
9	0x3ee3b50d	0.44474068
10	0x3e9cea07	0.306473
11	0x3ed9b8e7	0.42523882
12	0x3ebc6587	0.3679621
13	0x3ea0c2af	0.31398532
14	0x3eaf69da	0.34260446
15	0x3ea822f3	0.32839164
16	0x3f08b600	0.5340271
17	0x3eb0e6ce	0.3455109
18	0x3ec5f80f	0.38665816
19	0x3ed387cb	0.4131454
20	0x3ead1985	0.33808532
21	0x3edc2b11	0.43001607
22	0x3e7f4132	0.24927214
23	0x3ee377d6	0.44427365
24	0x3e916651	0.28398374
25	0x3e595ba5	0.21226366
26	0x3eb0d060	0.34533978
27	0x3ed7aa43	0.42122087
28	0x3ea37075	0.31921735
29	0x3ea355e4	0.31901467
30	0x3ebe63e7	0.37185594
31	0x3e832a15	0.25618044
32	0x3ebc0f1c	0.36730278
33	0x3ea6f33f	0.32607457
34	0x3e9100e8	0.28321004
35	0x3eb27570	0.34855223
36	0x3ec6d2f4	0.3883282
37	0x3f056a0f	0.5211496
38	0x3e844c57	0.25839493
39	0x3edb7af4	0.42867243
40	0x3eacf789	0.33782604
41	0x3e993fcb	0.29931483
42	0x3ebfdb13	0.37471828
43	0x3e9fc656	0.31206006
44	0x3ef75d4e	0.48313373
45	0x3ee2fc6e	0.44333214
46	0x3ebebf46	0.37255305
47	0x3eb76556	0.358195
48	0x3ebd50f9	0.3697584
49	0x3e8efbcc	0.2792648
50	0x3e735516	0.23762926
51	0x3ed7577b	0.4205893
52	0x3edd5766	0.43230742
53	0x3ed384fc	0.41312397
54	0x3eab6fef	0.33483836
55	0x3eacdbd1	0.33761457
56	0x3ee10c8e	0.4395489
57	0x3e7e9209	0.24860395
58	0x3eacbffb	0.3374022
59	0x3e88f9c7	0.26753065
60	0x3ee60e09	0.44932583
61	0x3e3db2ec	0.18525285
62	0x3ea4333d	0.32070342
63	0x3ec46797	0.38360283
64	0x3e28c6df	0.16482113
65	0x3e85a208	0.26100183
66	0x3eed392f	0.4633269
67	0x3edcf7b5	0.43157735
68	0x3e8bff70	0.2734332
69	0x3edd38d2	0.43207413
70	0x3e4585d5	0.19289334
71	0x3e1ba166	0.15198287
72	0x3eb4fd95	0.35349718
73	0x3e8d1dec	0.2756189
74	0x3e5fc0ef	0.21850942
75	0x3ec5decc	0.38646543
76	0x3e26eace	0.16300508
77	0x3ebe8533	0.37210998
78	0x3e93449f	0.2876329
79	0x3eb269e3	0.3484641
80	0x3e9d1339	0.30678728
81	0x3e9bc9d3	0.30427417
82	0x3ef3cd2e	0.47617477
83	0x3ea1c064	0.31592095
84	0x3ed93653	0.4242426
85	0x3edfa6b7	0.4368188
86	0x3ea94f12	0.33068138
87	0x3e69cb99	0.22831573
88	0x3ed7df05	0.42162338
89	0x3ea04360	0.31301403
90	0x3e9eeafb	0.3103865
91	0x3eae1112	0.339974
92	0x3eaa62ea	0.3327859
93	0x3ebc226e	0.36745018
94	0x3e376126	0.17908153
95	0x3e99af34	0.30016482
96	0x3ee2fc97	0.44333336
97	0x3ef1a32e	0.4719481
98	0x3efb1e09	0.49046353
99	0x3e9a5c12	0.3014837
100	0x3eb91a4d	0.36152878
101	0x3eac31f1	0.33631852
102	0x3ea4dd59	0.32200125
103	0x3ed598aa	0.41718036
104	0x3e51bf81	0.20483209
105	0x3eabfd81	0.33591846
106	0x3ea1cdc7	0.31602308
107	0x3eb154ae	0.34634918
108	0x3e672de1	0.22576095
109	0x3eaf26f0	0.34209394
110	0x3ea70f2c	0.32628763
111	0x3eb786d5	0.35845056
112	0x3ec52f5b	0.38512692
113	0x3ee813d3	0.45327625
114	0x3f00283b	0.50061387
115	0x3eb25fef	0.34838817
116	0x3f02d3be	0.5110434
117	0x3ec011e8	0.3751366
118	0x3ebc4acc	0.36775815
119	0x3ea4ab81	0.32162097
120	0x3ec66a07	0.38752767
121	0x3ed0e554	0.40799963
122	0x3ed7fee7	0.42186663
123	0x3e6c3241	0.23066045
124	0x3ea95e01	0.33079532
125	0x3ead36b6	0.33830804
126	0x3e90c0f0	0.282722
127	0x3eacb8e8	0.33734822
128	0x3e774534	0.24147493
129	0x3edc801f	0.430665
130	0x3eb26b54	0.3484751
131	0x3e229518	0.15877187
132	0x3e7c3e17	0.2463306
133	0x3ea1525c	0.31508148
134	0x3ea00ecf	0.31261298
135	0x3ebabd45	0.36472526
136	0x3ea9629e	0.3308305
137	0x3e9d2273	0.30690345
138	0x3eb169b2	0.34650952
139	0x3eb78365	0.35842434
140	0x3ecbb6f0	0.39788008
141	0x3ecc4e73	0.39903602
142	0x3ecfed2e	0.4061064
143	0x3ea3185a	0.31854516
144	0x3eafd268	0.34340215
145	0x3efd6259	0.49489096
146	0x3ebff300	0.37490082
147	0x3ecd71bc	0.40125835
148	0x3e9899d4	0.29804862
149	0x3ecffb68	0.40621495
150	0x3edfaf7e	0.43688577
151	0x3ec8004c	0.39062726
152	0x3ead3c9f	0.33835313
153	0x3ea6ce4d	0.3257927
154	0x3ec2b41b	0.38028035
155	0x3ef9f718	0.4882133
156	0x3ea9aef6	0.33141297
157	0x3e4e4115	0.20142014
158	0x3ec1f8f7	0.37885258
159	0x3ebd6710	0.36992693
160	0x3eb6ed24	0.357278
161	0x3e9d17f8	0.3068235
162	0x3ec33da4	0.38132966
163	0x3ed6662a	0.4187482
164	0x3e9cfb66	0.30660552
165	0x3e9fb4e2	0.3119269
166	0x3eb2e3c4	0.34939396
167	0x3e75286c	0.23941201
168	0x3e873ebb	0.26415047
169	0x3e6a6125	0.2288862
170	0x3e399090	0.18121552
171	0x3e6ee0ca	0.23327938
172	0x3ed9786b	0.42474684
173	0x3ed9eedd	0.4256505
174	0x3e6ef3d9	0.23335208
175	0x3ebb9fb2	0.36645275
176	0x3ede7c8e	0.43454403
177	0x3e5d1288	0.215891
178	0x3ea6bc54	0.32565558
179	0x3ee5c293	0.4487501
180	0x3eb93eb1	0.36180642
181	0x3ec13681	0.37736896
182	0x3eaa9056	0.33313245
183	0x3e7a885c	0.2446608
184	0x3ebbfb75	0.36715284
185	0x3eff8ee6	0.4991371
186	0x3e2842b9	0.16431703
187	0x3f0d9c71	0.55316836
188	0x3eab7b80	0.3349266
189	0x3edacd8e	0.4273495
190	0x3e3b57c3	0.18295197
191	0x3efe2e6d	0.49644795
192	0x3e924308	0.28566766
193	0x3ec21dd9	0.37913397
194	0x3ec22780	0.3792076
195	0x3e0972c5	0.13422687
196	0x3ee00413	0.43753108
197	0x3ea54934	0.32282412
198	0x3ed95728	0.42449307
199	0x3ec2d308	0.3805163
200	0x3ed52f1b	0.416375
201	0x3ec975d6	0.39347714
202	0x3ea8da1b	0.329789
203	0x3e9365fe	0.2878875
204	0x3ea7eec8	0.32799363
205	0x3ea3d7d0	0.3200059
206	0x3ef94ad2	0.48689896
207	0x3e70ed58	0.2352804
208	0x3ed5ce1d	0.41758814
209	0x3ecb2658	0.3967769
210	0x3ebcd0c1	0.36878017
211	0x3ee4e167	0.44703218
212	0x3ec422ae	0.38307709
213	0x3e497df4	0.19676954
214	0x3ee04df1	0.43809465
215	0x3eef9446	0.4679281
216	0x3ee7231d	0.45143977
217	0x3ea0c91a	0.31403428
218	0x3ed053e4	0.40689003
219	0x3e9c0874	0.304752
220	0x3ede6c39	0.43441942
221	0x3e6c522f	0.23078226
222	0x3e56775c	0.2094397
223	0x3ea06b46	0.31331843
224	0x3ee7222b	0.45143256
225	0x3e88a752	0.26690155
226	0x3e92bab8	0.2865808
227	0x3ed805dc	0.4219197
228	0x3e9e8e81	0.30968097
229	0x3e809025	0.25109974
230	0x3e873ae4	0.26412117
231	0x3e92d539	0.286783
232	0x3e76c068	0.24096835
233	0x3ee1b7a7	0.44085428
234	0x3eb7865c	0.35844696
235	0x3e813b20	0.2524042
236	0x3edf21bc	0.43580425
237	0x3f10277a	0.56310236
238	0x3e9a1d0c	0.30100286
239	0x3ec44fb9	0.38342074
240	0x3e9dcfce	0.30822605
241	0x3ece7af6	0.40328187
242	0x3dd5be2d	0.10436664
243	0x3eb0b0a9	0.3450978
244	0x3eba9ffc	0.36450183
245	0x3ee015d9	0.43766668
246	0x3ecd90b8	0.40149474
247	0x3e8b3a69	0.27193
248	0x3ea571ad	0.3231329
249	0x3ea47cbd	0.32126418
250	0x3ec3aca8	0.38217664
251	0x3e81a0b4	0.2531792
252	0x3e99ba73	0.30025062
253	0x3eab29a4	0.33430207
254	0x3eaed3da	0.34146005
255	0x3ed70aed	0.42000523

item_bias.weight f4 [500, 1]
0	0x3ed874b7	0.42276546
1	0x3eeeb5c5	0.46623054
2	0x3ecae347	0.39626524
3	0x3ebb0136	0.3652436
4	0x3ec579cf	0.38569495
5	0x3efd0d90	0.4942441
6	0x3ec1d39d	0.3785676
7	0x3ed019d3	0.40644702
8	0x3f05bee5	0.52244407
9	0x3ec4e67d	0.384571
10	0x3ea765cd	0.32694855
11	0x3ea32541	0.3186436
12	0x3f104d93	0.5636837
13	0x3ef27d9a	0.4736145
14	0x3ef57d3a	0.47947103
15	0x3ee0f780	0.43938828
16	0x3f0663e9	0.524962
17	0x3ec6a2b7	0.38796017
18	0x3ec3acfe	0.3821792
19	0x3eca8f6a	0.3956254
20	0x3f0a2371	0.5396033
21	0x3f0b4038	0.54394865
22	0x3edc32a4	0.43007386
23	0x3f0a5847	0.5404095
24	0x3f081a31	0.53164965
25	0x3eb29b0b	0.34883913
26	0x3f1f940e	0.6233529
27	0x3eb450d6	0.35217923
28	0x3ed45bd2	0.41476303
29	0x3f2a5f0d	0.66551286
30	0x3f0dae09	0.5534368
31	0x3e9a92d2	0.3019014
32	0x3eddab76	0.43294877
33	0x3ec75dc9	0.3893874
34	0x3edb0665	0.42778316
35	0x3e9edd57	0.31028244
36	0x3edab779	0.42718104
37	0x3ec742ea	0.3891824
38	0x3ee894e5	0.45426098
39	0x3f0b3830	0.5438261
40	0x3eca11d3	0.39466724
41	0x3eb7f00d	0.35925332
42	0x3f178e18	0.5920119
43	0x3ec69f9c	0.38793647
44	0x3ed8126e	0.4220156
45	0x3ecb08eb	0.3965524
46	0x3edce930	0.43146658
47	0x3ec23383	0.37929925
48	0x3e9c7357	0.30556747
49	0x3ec7cce3	0.39023504
50	0x3ea0357f	0.31290814
51	0x3ec730ab	0.38904318
52	0x3ecfa248	0.40553498
53	0x3ee0fb98	0.4394195
54	0x3f1a4008	0.60253954
55	0x3ebde793	0.3709074
56	0x3ec1a1da	0.37818795
57	0x3eba55b7	0.3639352
58	0x3ef48357	0.47756454
59	0x3eecbec6	0.462393
60	0x3ec66a7d	0.3875312
61	0x3ec8f6b7	0.39250728
62	0x3eb66c99	0.35629728
63	0x3f2bef50	0.67162037
64	0x3f0b79f0	0.54482937
65	0x3eb4f6b5	0.35344473
66	0x3ed3a93e	0.4134006
67	0x3ef5c247	0.47999784
68	0x3f13b155	0.5769246
69	0x3ea91d22	0.3303004
70	0x3ec19284	0.37807095
71	0x3ec6ecfb	0.38852677
72	0x3ec7ce21	0.3902445
73	0x3ed75f13	0.42064723
74	0x3eafbeaf	0.34325168
75	0x3eb37dee	0.35057014
76	0x3f1c5e27	0.61081165
77	0x3eb3ee1e	0.35142606
78	0x3ebc2046	0.36743373
79	0x3ed14a64	0.40877068
80	0x3ebc5a5a	0.36787683
81	0x3ebd8a5d	0.37019625
82	0x3f2978c9	0.6619993
83	0x3f0b41da	0.54397357
84	0x3f035fa1	0.51317793
85	0x3ecc8580	0.39945602
86	0x3ec085e6	0.37602156
87	0x3ec484aa	0.38382465
88	0x3f0e4f2f	0.55589575
89	0x3efb4ecd	0.49083558
90	0x3e995484	0.29947293
91	0x3ec0f9c5	0.3769056
92	0x3eaba56f	0.33524653
93	0x3f0a75b8	0.54085875
94	0x3ead5e1c	0.33860862
95	0x3f10b494	0.5652554
96	0x3ec4ea9c	0.38460243
97	0x3f284d6b	0.6574313
98	0x3ec09d68	0.3762009
99	0x3ebe5d25	0.3718044
100	0x3eab19e8	0.33418202
101	0x3f022862	0.5084287
102	0x3f05b7a5	0.52233344
103	0x3ec4a6ad	0.38408414
104	0x3eb0a5b8	0.34501433
105	0x3ed1071f	0.40825745
106	0x3ece9ea0	0.40355396
107	0x3f0998a6	0.5374855
108	0x3f08c267	0.53421634
109	0x3f059924	0.521868
110	0x3ec4a956	0.38410443
111	0x3f0a4af6	0.5402063
112	0x3f1738b4	0.590709
113	0x3eb7e9c7	0.35920545
114	0x3eb35c54	0.35031378
115	0x3eb7bcdc	0.35886276
116	0x3ed60295	0.41798845
117	0x3f191225	0.5979331
118	0x3ec0071d	0.37505427
119	0x3ec1df16	0.37865514
120	0x3f31c182	0.69435894
121	0x3ecf2322	0.40456492
122	0x3e9ceb78	0.30648398
123	0x3f08de0d	0.5346382
124	0x3ea9f667	0.33195803
125	0x3ebdb0aa	0.37048846
126	0x3ed6008c	0.41797292
127	0x3f09eddf	0.5387859
128	0x3ebeae72	0.37242466
129	0x3ec1831e	0.37795347
130	0x3ebd1fd8	0.36938357
131	0x3ec29186	0.3800165
132	0x3ebad726	0.3649227
133	0x3f0fbc00	0.5614624
134	0x3ebcd307	0.3687975
135	0x3ea192fb	0.3155745
136	0x3ec0ce7b	0.37657532
137	0x3eafa9ba	0.3430918
138	0x3f1e733a	0.6189457
139	0x3f0ec57f	0.55770105
140	0x3f041839	0.5159946
141	0x3ed8e90c	0.423653
142	0x3ee192a4	0.4405719
143	0x3f218bc8	0.63103914
144	0x3eeaa90b	0.45832095
145	0x3ebd782f	0.37005755
146	0x3f02f804	0.5115969
147	0x3ec91fdd	0.39282122
148	0x3f0360fd	0.5131987
149	0x3f279425	0.65460426
150	0x3eee5b6e	0.4655413
151	0x3ecd9c9b	0.40158543
152	0x3eef5a3c	0.4674853
153	0x3ecb3e9e	0.3969621
154	0x3ecb6b9a	0.3973053
155	0x3ea92f7e	0.33044046
156	0x3f06d4dd	0.52668554
157	0x3ee729df	0.45149133
158	0x3ec9387b	0.39300904
159	0x3ee60594	0.4492613
160	0x3f1ad1e1	0.604765
161	0x3edfea4c	0.43733442
162	0x3edb8b5a	0.42879754
163	0x3eb13162	0.3460799
164	0x3ebe4415	0.37161317
165	0x3eeff0d4	0.46863425
166	0x3f0cd98f	0.5501947
167	0x3f014023	0.5048849
168	0x3efed3b9	0.49770907
169	0x3eefe14d	0.46851578
170	0x3ecb42fa	0.39699537
171	0x3ec2e0f6	0.38062257
172	0x3eccbf7f	0.3998985
173	0x3f02c10f	0.51075834
174	0x3ea2bd4f	0.31785056
175	0x3f2310eb	0.6369769
176	0x3ec55b91	0.38546422
177	0x3edfaa6f	0.43684718
178	0x3ecd2bb7	0.40072414
179	0x3f290799	0.6602722
180	0x3eae2c15	0.34018007
181	0x3ebecc75	0.37265363
182	0x3f08e384	0.5347216
183	0x3eab29d1	0.3343034
184	0x3f304e79	0.6886974
185	0x3f275c02	0.6537477
186	0x3eea4f65	0.45763698
187	0x3f096d33	0.5368225
188	0x3efe3a57	0.49653885
189	0x3ed0f57c	0.4081229
190	0x3f08eb9b	0.53484505
191	0x3ec488a7	0.38385507
192	0x3f240d01	0.6408234
193	0x3ee6053f	0.44925877
194	0x3f360d86	0.71114385
195	0x3f0abca2	0.5419408
196	0x3f1c4ab1	0.6105147
197	0x3ed4cedd	0.41564074
198	0x3eb289de	0.3487081
199	0x3eb76b17	0.3582389
200	0x3edc4e4e	0.43028492
201	0x3ec9b4c1	0.39395717
202	0x3ec8b47d	0.39200202
203	0x3ed404b5	0.4140984
204	0x3ef16967	0.47150728
205	0x3ec5c48c	0.38626516
206	0x3ed5f011	0.4178472
207	0x3eff9a9e	0.4992265
208	0x3ed78aac	0.42097986
209	0x3ede4360	0.43410778
210	0x3f0b159d	0.54329854
211	0x3ed5ddfa	0.41770917
212	0x3ed219b6	0.4103524
213	0x3ea45ffd	0.32104483
214	0x3f0221b3	0.5083267
215	0x3f1f1b72	0.62151253
216	0x3e9ee0e5	0.31030956
217	0x3ebe2c9a	0.37143403
218	0x3efffbd2	0.4999681
219	0x3ec76931	0.38947442
220	0x3eac91bf	0.33704945
221	0x3f1676de	0.58775127
222	0x3eca21fd	0.39479056
223	0x3f0c456c	0.5479343
224	0x3ed8d45a	0.4234951
225	0x3eb97739	0.36223772
226	0x3f0cdfbd	0.550289
227	0x3ed01b05	0.40645614
228	0x3f112a60	0.56705284
229	0x3ed25073	0.41077003
230	0x3f102a44	0.5631449
231	0x3ec558e6	0.38544387
232	0x3eccf672	0.40031773
233	0x3ef0b475	0.47012678
234	0x3ec9f738	0.39446425
235	0x3eb58a63	0.35457143
236	0x3ec285ad	0.37992612
237	0x3e9f728d	0.31142083
238	0x3f2a633b	0.66557664
239	0x3ed8d526	0.4235012
240	0x3f28995b	0.65859
241	0x3ec579e5	0.3856956
242	0x3eeb0459	0.45901754
243	0x3ee2f2f4	0.44325984
244	0x3eb4c0d3	0.35303363
245	0x3f2cfba2	0.6757146
246	0x3ecb77fe	0.39739984
247	0x3e98ba70	0.2982974
248	0x3eb9c158	0.36280322
249	0x3ecc6702	0.3992234
250	0x3f286d4d	0.6579178
251	0x3ec9b3ba	0.39394933
252	0x3f04c06f	0.5185613
253	0x3ecbacd9	0.3978031
254	0x3ed5b00c	0.41735876
255	0x3f0c6209	0.5483709
